last_brain.pth (torch, 34210 bytes, 24 tensors)

fc1.weight f4 [30, 5]
000000 69 66 b2 3c d1 d7 df be ac 72 60 3e 9f 40 ee be
       0.021777349 -0.43719342 0.21918744 -0.46533677
000010 13 7c 25 3f 8c 6d 0b 3e 99 83 7e be 3c f4 af be
       0.6464245 0.13616008 -0.24854888 -0.34366024
000020 80 d3 e0 bd c0 d3 5a bc ae ba 8a be bf fe 12 3e
       -0.109778404 -0.013356149 -0.2709555 0.1435499
000030 ea 8a 58 3e 15 2b 9e be de 28 10 3f e3 1f 89 bc
       0.21146742 -0.30892244 0.5631236 -0.016738838
000040 0f 5e de be cf e5 21 3e ec ae a0 3e 44 ff fb be
       -0.43431136 0.15810321 0.31383455 -0.4921819
000050 fb 90 d1 be e4 15 2a 3f 45 67 06 be ae ec 0a be
       -0.40930924 0.6643965 -0.13125332 -0.13566849
000060 d4 70 df 3e c9 12 12 3e 3a ef 93 3f e3 c3 10 3e
       0.4364077 0.14264978 1.1557381 0.14137225
000070 ad 1b 82 3e 4c 2c 01 bf c5 54 0a 3f 6e 69 95 be
       0.2541174 -0.50458217 0.540356 -0.29182
000080 fd 05 e9 bd d4 28 60 3e db 8b 98 be c4 23 26 be
       -0.11378095 0.21890575 -0.297942 -0.16224581
000090 19 21 8a 3f 6a b6 66 3e fb 00 03 3c 95 c2 0f bf
       1.0791351 0.22530523 0.007995839 -0.56156284
0000a0 64 b5 cf be 58 de f3 be 9d b8 9f 3e 79 3c 48 be
       -0.40568078 -0.47630572 0.31195536 -0.19554318
0000b0 19 a4 44 3f 17 32 aa be 54 6f 51 3f 93 07 b5 be
       0.76812893 -0.3324134 0.818105 -0.3535734
0000c0 02 b1 5d bd 26 8f 20 bf 53 6c ee 3e b0 d1 bc be
       -0.054123886 -0.6271843 0.4656702 -0.3687873
0000d0 e0 9d 07 3e fd 09 c2 3b 92 e3 b9 3e 4c 4e e6 bd
       0.13243818 0.005921601 0.36306435 -0.11245403
0000e0 24 df ea bd a0 bb 13 be 43 14 e0 be ac 3a 1c be
       -0.11468342 -0.14427042 -0.43765458 -0.15256757
0000f0 1e 58 be be df 11 3d 3e c7 97 64 be fe 7f 1a bf
       -0.37176603 0.18463849 -0.22323523 -0.6035155
000100 7e f0 1a 3f bd d9 06 be 56 17 e5 3d 52 8e 44 be
       0.6052321 -0.13168998 0.111860916 -0.19194916
000110 2e 00 ab 3d 9c 2e 7d 3e 6a b9 43 be 23 bf 3a 3f
       0.08349644 0.24724811 -0.19113699 0.729479
000120 68 dc 6b bd cd 3a f3 3e cb 37 3f bf 7b 2e 54 be
       -0.057583243 0.475058 -0.7469451 -0.20720856
000130 05 77 75 3e 65 5e 35 3e 83 9b 05 bf 43 37 0c 3f
       0.23971184 0.1771179 -0.5219042 0.5477182
000140 c4 f1 3b bd f0 99 a4 be 4e b0 b8 bd c7 3d 1f 3f
       -0.045884863 -0.32148695 -0.090180025 0.6220364
000150 b6 e4 f1 be 97 d4 b0 bc 5a d4 35 bf 54 b5 f6 3d
       -0.47244805 -0.021585746 -0.7102715 0.12046304
000160 1b 40 bb be c8 2e 2d 3f 0f 75 48 3e 2f f7 2d bd
       -0.36572346 0.6764951 0.19575904 -0.04247206
000170 22 ea 71 3e 53 82 b9 bd cf d0 5a 3e 3a 36 e8 3d
       0.23624471 -0.090580605 0.21368717 0.11338468
000180 37 b1 6e 3f 97 1a ee 3e 51 d1 78 3e 97 ae 4f be
       0.9323916 0.4650466 0.24298598 -0.20281444
000190 da ff 9d 3d ab ba 22 3f 0c cf 76 3e fd 87 51 be
       0.077148154 0.6356608 0.2410242 -0.20462032
0001a0 96 8a af 3e 38 8d ca 3d 4c f5 80 3e e4 53 d9 be
       0.3428542 0.098902166 0.25187147 -0.42446816
0001b0 35 10 29 bf 7c e9 af 3e 58 b0 ae bc 36 ce 49 3f
       -0.66040355 0.34357822 -0.021324322 0.7883028
0001c0 41 3f 10 be 61 9f 84 bd 24 6a fb be 4e 8c 9c be
       -0.1408663 -0.064757116 -0.49104416 -0.30575794
0001d0 a0 bd 66 3f 7f 22 11 3f ff 44 ab be 9d bf 18 3f
       0.90133095 0.5669326 -0.33451077 0.5966738
0001e0 05 7e c8 be 68 51 46 3e 22 c7 80 3e c0 94 01 3e
       -0.39158645 0.19366992 0.25151926 0.126544
0001f0 a0 86 0e 3e c7 39 30 3f ee c1 01 bf 2e 25 ea 3e
       0.13918543 0.6883816 -0.5068654 0.4573149
000200 96 fa c7 3e f0 93 16 bf 62 83 3b 3e d7 05 ca be
       0.3905837 -0.58819485 0.18311837 -0.3945758
000210 22 47 e5 3d fe 1a 01 3f 49 63 21 be 3f a1 fa 3e
       0.11195208 0.5043181 -0.1576053 0.48951146
000220 99 ec 70 3e 3a 20 e3 be 01 9b 2c bf 11 27 0b 3f
       0.23527755 -0.44360524 -0.6742402 0.54356486
000230 eb 6e 5e be 37 4d c8 be 11 d4 9a 3d 09 a3 85 3d
       -0.21722 -0.3912141 0.0755998 0.06525237
000240 9e d5 f8 be 35 2b 86 be a2 09 57 3f ac 00 96 3e
       -0.48600477 -0.2620484 0.83999074 0.29297388
000250 c5 47 17 3f d1 d7 41 bf
       0.59093887 -0.75719935

fc1.bias f4 [30]
000000 bd 1a ed 3d d0 d6 80 be e7 2b b4 be a5 4f cb 3e
       0.115773655 -0.2516389 -0.35189745 0.397092
000010 00 57 6c bd b7 33 9e be e4 07 8d 3e 16 b2 ef 3e
       -0.057700157 -0.3089883 0.27545083 0.46815556
000020 94 2f d5 be 64 2c fb 3d 62 5c 04 3f 66 c5 c0 be
       -0.41637862 0.12264326 0.51703465 -0.37650603
000030 15 45 ad be d7 03 36 be 21 f6 f2 be 81 40 f2 be
       -0.33841768 -0.17774902 -0.47453406 -0.47314838
000040 3f 2e 02 bf 9f 3b 6a 3d 0d 42 40 3f ca d7 93 3d
       -0.50851816 0.057185765 0.75100785 0.07218893
000050 39 44 89 3e 43 80 78 be 95 36 52 3e 96 b1 c0 be
       0.26809862 -0.24267678 0.20528634 -0.37635487
000060 d6 c3 55 be 11 e1 a9 3e 45 c4 88 3e aa 59 ad be
       -0.20875487 0.33179525 0.26712242 -0.3385747
000070 e4 e2 14 3f c5 45 84 be
       0.5815871 -0.2583448

fc2.weight f4 [30, 30]
000000 01 66 3a 3d d1 77 bf bd 69 bb b3 bd b1 97 53 bd
       0.045507435 -0.09349025 -0.0877598 -0.051658336
000010 1f 1e 0f 3c b4 16 14 bd 2f 55 d9 bd 5c 5c 27 be
       0.008735209 -0.036154464 -0.106119506 -0.16343826
000020 ab 9a f4 bc 5a d2 e3 bd 2b 43 98 3d ee 31 9a bd
       -0.029858908 -0.11124106 0.07434686 -0.075290546
000030 5f 13 a7 bd 50 49 0a 3c 54 e1 9c 3d 7c ad d8 3d
       -0.081579916 0.008440331 0.076601654 0.105799645
000040 5d 7d 07 be 72 71 4e bc 90 99 a0 3b 99 ca 31 be
       -0.13231416 -0.01260029 0.0049011186 -0.17362441
000050 7e 06 17 3e d0 00 66 bd da 8b 11 3e f9 e0 44 be
       0.1474857 -0.05615312 0.14213505 -0.19226445
000060 10 d9 10 3c 86 15 44 be 5c 7c 9f 3d f5 a7 02 3e
       0.008840814 -0.19148836 0.077873915 0.12759383
000070 23 f5 76 3d 0c 50 10 3d 3f c6 d1 3c 76 41 cc bd
       0.060292374 0.03523259 0.025607226 -0.09973423
000080 10 7f 52 3c 3c c9 86 3d 76 d5 ac bc 0f 8b 4a be
       0.012847677 0.06581351 -0.02109788 -0.19779609
000090 85 bf 12 3d d6 58 76 3d eb 62 de 3e f7 62 1b 3e
       0.03582718 0.060143314 0.43434843 0.15174471
0000a0 76 f5 c3 3d 28 39 00 bd ca 77 9f 3e d3 db 0c be
       0.09568302 -0.03130451 0.3114608 -0.13755731
0000b0 36 d0 96 3e e7 0f 31 be a2 ca 20 bd bc 3f 73 bd
       0.29455727 -0.17291223 -0.039255746 -0.059386954
0000c0 65 0f 32 bc e1 12 bd bd ab ac b6 3d 00 a3 47 3d
       -0.010867928 -0.092321165 0.089196526 0.048739433
0000d0 e3 bc 73 3e c0 d1 4a be 60 ff 0e be 73 d0 7b be
       0.23802523 -0.19806576 -0.13964605 -0.24591236
0000e0 10 e9 9f 3d 23 a9 c6 3e a7 61 97 bb 94 04 36 bd
       0.07808125 0.38800916 -0.0046197954 -0.04443796
0000f0 7b f0 37 be c4 bf db 3d 4d f0 b9 be 29 dd 63 bd
       -0.1796283 0.10729936 -0.36316147 -0.055630837
000100 26 82 b9 3c cb 25 56 3e 79 7d cb bd 20 37 d8 3e
       0.022645067 0.20912854 -0.099360414 0.42229557
000110 ba f5 a0 bf 89 1e 57 3d 5e 6a 37 3e ac 75 f2 3d
       -1.257499 0.052519355 0.1791167 0.118388504
000120 22 fe 69 bf 73 e7 1e 3e 2f f5 32 be 41 58 f3 be
       -0.914034 0.15517978 -0.17476343 -0.4752827
000130 81 5b c3 3e 04 a3 4e 3d 2b 39 a6 3d 77 49 ef 3e
       0.3815575 0.050448433 0.08116373 0.46735737
000140 15 f6 e4 3d bd b2 30 bf 4b 7e 8e 3d 18 ee 01 3f
       0.11179749 -0.6902273 0.06957682 0.5075393
000150 d8 6f 20 be 8d b7 b2 3e 6a e9 b2 bd a7 79 8e be
       -0.15667665 0.34905663 -0.087359264 -0.27827188
000160 79 1e 4b bd 2b dd 6b 3c 34 b5 80 be 3a 12 c7 bd
       -0.049589608 0.014395992 -0.25138247 -0.09720273
000170 dc f7 11 3f eb 8c c8 bf a4 bb 62 3e 90 7d 4e 3f
       0.5701883 -1.5668005 0.22141892 0.80660343
000180 39 d0 8b bf 2b 53 eb 3e 4c 14 d7 bf b3 1c 2e 3f
       -1.092292 0.4596189 -1.6803069 0.6801254
000190 75 59 15 bf 04 74 bc 3d a1 d6 68 3e ec b7 d4 3d
       -0.58339626 0.09201816 0.22738124 0.10386643
0001a0 64 88 79 bf a8 3a 85 3e f3 c4 93 be d1 ee 7c 3e
       -0.9747374 0.26021314 -0.28861198 0.24700476
0001b0 0a 86 cf be d0 10 80 3e ce ca 59 3e ed 5b e8 bd
       -0.4053195 0.25012827 0.2126877 -0.113456585
0001c0 62 cc d3 3e a2 74 35 3f 98 81 55 bd b8 d3 28 bf
       0.4136687 0.7088109 -0.052125543 -0.6594806
0001d0 a1 f1 d7 bf 8b c6 c8 be 34 4b b7 bf 63 8f a3 3f
       -1.6870614 -0.39213976 -1.4319825 1.2778133
0001e0 e1 65 ca bd ae db 1d 3e 86 34 11 3e 7b a0 00 3e
       -0.09882713 0.15415832 0.14180192 0.12561218
0001f0 00 5a 2e bd 40 b1 98 3c 7a 08 c6 3c 5d 1c af 3d
       -0.0425663 0.018639207 0.024173964 0.08550332
000200 b8 ad 32 bd ed 48 f9 bd 13 c8 52 be 30 bc 62 3d
       -0.043622702 -0.121721126 -0.20584135 0.05535525
000210 ba 0c 26 3e 3e c6 22 3e 8c 4d 1c be 54 cf 28 be
       0.16215792 0.15895936 -0.15263957 -0.1648534
000220 d5 3b 08 be b9 75 b8 3d 8d 19 73 bd 16 5b ee bc
       -0.13304074 0.09006829 -0.05935054 -0.029096168
000230 ae 18 4e be 64 73 c0 3d 3a d0 a9 bd 10 3d b8 bd
       -0.20126602 0.09397009 -0.08291669 -0.08996022
000240 00 fc 33 3c c7 d2 01 3e 20 ac ce 3b dc e3 c1 bd
       0.010985374 0.12678061 0.00630714 -0.09467289
000250 58 be 09 be 1b 7a e3 3c fe 29 81 3e 48 09 01 3e
       -0.13451517 0.027768185 0.2522735 0.12601197
000260 ac 0f 14 3e ca f7 64 3b fa cb 08 3d af 81 9b 3d
       0.14459103 0.0034937733 0.033397652 0.075930946
000270 a2 29 91 bd 77 78 f3 bc 5f 03 d6 3e 0e 56 38 bd
       -0.07088019 -0.029720528 0.41799447 -0.045003943
000280 61 5e e7 3d 90 54 88 bc 48 99 a5 bc ed d5 39 be
       0.11297298 -0.016641885 -0.020214692 -0.18148012
000290 7d a2 b0 3e f0 b0 82 bd 62 cf 1a bd 38 90 56 3c
       0.3449897 -0.063814044 -0.037795432 0.013095908
0002a0 c8 d5 77 3e 90 1f 62 3d 60 73 ef bd f9 15 5f 3e
       0.24202645 0.05520588 -0.11691928 0.21785726
0002b0 5b 3f 22 3d a9 b3 b6 be 38 0c 25 3e d7 cd 3f be
       0.0396112 -0.35683945 0.16117942 -0.18730865
0002c0 66 a1 79 3d 18 3a 8f 3e 23 d9 89 bd 73 bf 44 be
       0.060944937 0.2797401 -0.06730869 -0.19213657
0002d0 7a 7c 28 3f 58 a2 92 bc 99 9b b5 bf c1 98 4e 3e
       0.65814936 -0.017899677 -1.418811 0.20175458
0002e0 4c c2 25 bf 89 0f b9 bb 47 31 68 3e 8f 3d 84 3e
       -0.647496 -0.005647604 0.22675048 0.25828215
0002f0 69 50 b6 bf 85 70 20 3e cc fc 8b 3d e0 2a f7 3d
       -1.4243289 0.15667923 0.068353266 0.12068725
000300 ba 0a 60 bf d8 5a db bd 44 e7 bb 3e 98 95 c5 bf
       -0.8751637 -0.107106864 0.3669988 -1.5436277
000310 f9 11 32 be 4b bd c1 be 26 c6 20 3e 94 bd c4 bd
       -0.17389669 -0.37839732 0.15700588 -0.09606472
000320 1a ac 0a 3a 80 2b 86 bf a0 c8 23 3e d7 99 f3 be
       0.00052899274 -1.0482025 0.15994501 -0.47578308
000330 00 36 30 bd 5e db 90 3d 30 8f 96 3e 26 26 44 bf
       -0.04302025 0.07073091 0.29406118 -0.7662071
000340 42 3d e8 3e d3 9e 11 be e7 9f 19 be db 31 ad bd
       0.45359236 -0.14220743 -0.15002404 -0.08456775
000350 48 5d 17 be f5 cd 09 be 0f e7 bd bd 3d 56 b1 be
       -0.14781678 -0.13457473 -0.092725866 -0.34636107
000360 22 db 32 3e f8 01 4b 3d fa d6 de 3e e0 7c 86 be
       0.17466405 0.049562424 0.4352339 -0.26267147
000370 07 60 0e 3e 00 5a bf ba fc 63 17 3d f4 2e 0c be
       0.13903819 -0.0014598966 0.036960587 -0.13689786
000380 24 8c dd bf a0 35 96 be 4d d2 e1 bf 1d f9 13 be
       -1.7308393 -0.29337788 -1.7642304 -0.14450498
000390 25 e4 71 3e 3e 44 15 3d 52 26 4e 3e 43 96 26 be
       0.23622186 0.036442034 0.20131806 -0.16268258
0003a0 51 ca 9a bd 57 0c 5a bf 3e 8f 1e 3e b9 ff 7a 3c
       -0.0755812 -0.8517508 0.1548433 0.015319758
0003b0 18 e3 cb bc ba fd cb be ec 37 e0 3e f9 ca 22 bf
       -0.02488856 -0.39842016 0.43792665 -0.6359096
0003c0 5e 58 99 3e a8 07 c4 3d c7 b7 c5 bf 6b 63 04 3e
       0.2995023 0.09571773 -1.5446709 0.1292855
0003d0 1b 47 0a bd a6 3a 01 3f 11 1d 38 be 41 0e 13 3f
       -0.033759218 0.50480115 -0.17979838 0.57443625
0003e0 86 43 10 c0 10 6b ac 3d f0 b9 f5 3d 82 e0 31 3e
       -2.2541213 0.08418858 0.119983554 0.17370799
0003f0 f5 67 c1 be ba 6e b9 3b f3 9a fa 3d bd 57 cb bf
       -0.37774625 0.0056589516 0.122365855 -1.5886151

fc2.bias f4 [30]
000000 cd cc 24 be af 5d 56 3e dc c2 ae 3d db cf c3 be
       -0.1609375 0.20934175 0.0853326 -0.3824452
000010 34 84 00 be a6 ad 68 3e 15 27 af 3e ef 17 c0 3e
       -0.12550431 0.22722492 0.34209505 0.3751826
000020 d8 1b 69 3e 55 d2 5a be 1e 40 32 be 08 fe bb bd
       0.22764528 -0.21369298 -0.17407271 -0.09179312
000030 1b 33 21 be 00 43 14 be 21 cc a3 be ed 78 74 3e
       -0.15742151 -0.14478683 -0.31991675 0.23874255
000040 49 dc a9 bd f9 8e 1c be 41 d0 11 3e ad 72 8e 3e
       -0.08293969 -0.15288915 0.14239599 0.27821866
000050 2c 8a 20 3e d9 da 15 3e c1 6c 88 3e 5a 01 0b 3e
       0.15677708 0.14634265 0.26645473 0.13574734
000060 50 a8 ec bc 73 69 19 3e 94 bf ee 3e dc 51 9f 3d
       -0.028888851 0.14981632 0.46630538 0.07779285
000070 02 87 ed 3b 93 4f 84 3e
       0.00724876 0.2584196

fc3.weight f4 [30, 30]
000000 2c 24 36 3e 1f 11 e1 3d b5 81 ea bd 42 c8 84 3d
       0.17787236 0.10989594 -0.11450521 0.06483509
000010 be 36 28 3e 60 a6 f2 bc fb d0 24 3d 6f 75 14 be
       0.16427132 -0.02962035 0.04023836 -0.14497922
000020 e8 31 21 3e b9 86 90 bd 80 35 4c 3b 30 d8 85 3d
       0.15741694 -0.07056946 0.0031159818 0.06535375
000030 72 29 a5 bd 1c 31 9e 3d 10 f8 a2 bd 00 87 f7 3d
       -0.08064546 0.077242106 -0.079574704 0.12086296
000040 64 22 0b 3d 9a 19 87 bd ff ba 39 3d 7d a4 12 be
       0.033968344 -0.0659668 0.04534435 -0.1432056
000050 25 d3 02 be e4 d5 39 3e 6c 12 1e 3e fc cf ba bd
       -0.12775858 0.18147999 0.15436715 -0.09121701
000060 dc cd 35 bd 09 ad 22 be 33 c0 7b bd 5a b9 ad bd
       -0.044385776 -0.1588632 -0.061462592 -0.08482619
000070 dd bd 9a 3d fd 92 45 3c ed 73 ab bd 6d cd a7 bd
       0.07555745 0.0120589705 -0.083717205 -0.08193479
000080 2a b4 98 be 34 3c 8f bf 24 0d 24 3e eb a5 87 bc
       -0.29824954 -1.1190248 0.16020638 -0.016558608
000090 6f c1 83 3e 71 64 9b bf 15 75 01 3f 5d 21 70 bb
       0.25733516 -1.2140027 0.5056928 -0.003664098
0000a0 80 06 ba 3e 5d 2b 15 be d3 05 3b 3d 40 df 88 bb
       0.36333084 -0.14567323 0.04565985 -0.004177004
0000b0 0b fd 9f bf 7b e3 b1 3e 6b ba ac bd 72 32 84 3e
       -1.2499098 0.34743866 -0.08433994 0.25819737
0000c0 fd 09 91 3e 9e 25 8f 3e 71 0d 75 be 2e 61 c8 3e
       0.28327933 0.27958387 -0.23930909 0.39136642
0000d0 7f d3 b2 3e fd cb 66 3c e0 ba ef bd 07 a7 82 3c
       0.34926984 0.0140867205 -0.117055655 0.015948785
0000e0 68 10 01 3f f8 c9 0e bd 0d 35 36 3f dd d3 8e bc
       0.5041566 -0.03486058 0.711747 -0.017435009
0000f0 94 c4 d2 3d f1 4c cc 3d 52 93 d7 bd b8 91 9c bd
       0.102914006 0.09975613 -0.10526146 -0.07644981
000100 7a 73 d9 bc ba 19 37 bd ff f5 df bd fd 75 33 be
       -0.026544321 -0.04470227 -0.10935592 -0.17525478
000110 2e d6 3d be 08 eb b9 bc d7 e5 d7 bd 68 23 98 bc
       -0.18538734 -0.02269508 -0.10541885 -0.01857157
000120 4e 7a d2 3d 99 6a 17 be 38 3d 37 be 48 bd 20 be
       0.10277234 -0.14786758 -0.17894447 -0.15697205
000130 78 18 d3 3d c1 81 49 be d2 5a 78 3d b6 c5 84 3d
       0.103074014 -0.19678403 0.060633488 0.06483023
000140 fe c2 e1 3c 95 bc 06 3e d6 93 e7 bd 62 f1 c6 bd
       0.0275588 0.13157876 -0.11307494 -0.09714009
000150 52 f5 1a be a1 4c 5b be 4d 4b dd 3d 13 4a ec bd
       -0.15132645 -0.2141595 0.10805378 -0.11537566
000160 56 85 24 be 17 cc 4b 3d fd 4d 00 3e 7a a6 d6 3c
       -0.16066489 0.049755182 0.1252975 0.02620243
000170 50 ba 6f be b8 6b 82 bf 81 ec 9f 3d ff c9 59 3d
       -0.23410916 -1.0189123 0.078087814 0.053171154
000180 1d cd b4 3e de 14 8d bf ea be ef 3e 5c 04 8b bd
       0.3531274 -1.1021993 0.46825343 -0.06787941
000190 0d f7 de 3e ab c3 27 be ba f3 a4 3d 6b 13 0c be
       0.4354786 -0.16383235 0.080543 -0.13679282
0001a0 73 f7 a2 bf 67 95 7a 3e 26 9e 35 be c6 14 87 3e
       -1.2731766 0.24471055 -0.1773611 0.26383036
0001b0 5e f3 0f bd 11 01 f3 3d 4a c0 b1 be 35 23 c8 3e
       -0.035144202 0.11865438 -0.34717017 0.3908936
0001c0 09 45 71 3e 89 bc b6 3d 54 e2 13 be 53 f6 8f 3e
       0.23561491 0.08922679 -0.14441806 0.28117618
0001d0 e2 a6 03 3f 86 99 11 3e db ec 04 3f e9 f7 65 3e
       0.5142652 0.14218721 0.5192391 0.22457851
0001e0 4c 55 4b bc 29 37 f6 bd 0b 1b 9a be b1 5a 78 bf
       -0.012410473 -0.1202224 -0.30098757 -0.97013384
0001f0 15 f7 f2 bc 4a 35 82 3e dc d6 ac 3e 79 f4 a4 bf
       -0.029658834 0.2543128 0.33757675 -1.2887107
000200 97 78 be 3e 53 09 42 3d 50 21 bd 3e 80 e0 97 ba
       0.37201378 0.047372174 0.36939478 -0.0011587292
000210 8a 97 8f 3d 5f 68 9a bd 00 9d 92 bf dc e5 6f 3d
       0.07011326 -0.075394385 -1.1454163 0.05856882
000220 c0 45 6c 3c 3c d5 57 3e 5c 3b b6 3d a3 aa 34 3e
       0.014420927 0.21077436 0.08898041 0.17643218
000230 74 72 78 be a5 34 fc 3e 62 ed a2 3e a8 19 70 3e
       -0.2426241 0.49258915 0.31821734 0.23447287
000240 84 59 08 bd ea 30 31 3e dd 4c a8 3e bb 28 f7 3d
       -0.033288494 0.17303815 0.32871142 0.120683156
000250 60 c8 02 3f c8 b0 08 3e 27 f9 79 bd 64 b1 f3 bd
       0.51087 0.13348687 -0.061028626 -0.11899069
000260 bb c3 1f 3f 38 54 8c 3f 09 9a 87 3c 96 7b c6 3c
       0.62408036 1.0963202 0.016552942 0.024228852
000270 81 d2 76 be 45 4c 18 3f 8f 91 3a 3d 58 bd c5 3e
       -0.24103738 0.5949138 0.04554897 0.3862102
000280 cf 7d 8f 3e 03 ec be bd 50 57 bf 3e 18 25 26 3d
       0.28025672 -0.093223594 0.37371302 0.04056272
000290 34 17 a7 3f 9e 2f 78 3e 00 61 84 3b f5 9c 1b 3f
       1.3053956 0.24236915 0.0040398836 0.6078637
0002a0 aa d1 8c bd e2 60 b3 3e 4a 76 18 3f 23 c9 97 3d
       -0.06875928 0.35034853 0.59555495 0.07411411
0002b0 29 3d b8 be 30 f6 b1 3e ce 21 f1 bd 3d 3b 21 3e
       -0.35984161 0.3475814 -0.11774026 0.15745254
0002c0 bc bf ea be 42 b5 95 3e e8 90 31 be 0f f5 1c be
       -0.45849407 0.2923985 -0.17340434 -0.15327857
0002d0 0b 74 a6 3d 32 9c 02 be 15 01 33 3f 0e 81 c1 3f
       0.08127602 -0.12754896 0.69923526 1.5117509
0002e0 b1 e8 24 3e 9c 15 9e bd 69 11 7d 3d ed 63 a4 3f
       0.1610439 -0.077189654 0.06178418 1.2842995
0002f0 c9 a5 8e bd 2b 07 58 bf 61 6c 3d bf 88 24 f7 bc
       -0.06965215 -0.8438594 -0.739935 -0.030168787
000300 6c 5c 8d 3e ba 7a 1d be 9c 60 85 3f 28 fc 5c 3e
       0.27609575 -0.15378848 1.0420108 0.21580565
000310 4c 74 f0 3d 0e ed 59 3d 09 ed a5 be ae 32 8d 3e
       0.11740932 0.05320459 -0.32407406 0.27577728
000320 78 8c 17 3f a5 8f af bf 0c 19 8f be 61 f5 b1 3e
       0.59198713 -1.3715712 -0.27948797 0.34757522
000330 60 92 01 be d7 72 99 3d bd fb b3 be e6 97 8c 3e
       -0.12653494 0.07492607 -0.35153 0.2745964
000340 10 c0 01 c0 63 b0 da 3d 74 e5 62 3c 88 4b 91 3e
       -2.0273476 0.10678174 0.013848651 0.28377938
000350 99 44 cd bd 90 3a 82 bf 9f ef 83 bd 84 25 38 3e
       -0.100228496 -1.0174122 -0.064421885 0.17983061
000360 ea c6 9a 3e 9d a8 48 bf 21 5d cc 3e d4 87 33 bd
       0.30229884 -0.78382283 0.39914802 -0.043830708
000370 89 e1 92 3d 06 b6 7c bd bc fc 2c 3e 2a 60 1d be
       0.07171924 -0.06169703 0.16893286 -0.15368715
000380 d0 94 86 bf b6 c5 b1 3e 33 fa 31 be 5f ca 0b 3c
       -1.0514164 0.34721154 -0.173806 0.008532136
000390 42 89 26 3e 29 dd c1 3d f5 50 80 be e3 9b 49 3e
       0.16263297 0.09466011 -0.25061765 0.19688372
0003a0 47 90 64 3e 76 85 ef bd 9c 02 66 bd 47 4f 4c 3e
       0.22320662 -0.116953775 -0.056154832 0.19952117
0003b0 93 33 15 3f 58 83 95 3e 69 1e ea 3e 52 75 80 3e
       0.5828182 0.2920177 0.45726326 0.25089508
0003c0 d6 f4 14 3d 0e ee 84 3d f5 b9 a0 be 98 02 77 bf
       0.036366306 0.06490718 -0.31391874 -0.9648833
0003d0 9f cb 37 3c c1 a7 1f 3e 95 cb 88 3e 85 7c a9 bf
       0.011217981 0.15591337 0.2671782 -1.3241125
0003e0 28 5f 23 3f 0f e6 f0 3c 78 58 b9 3e b8 4f 6a bd
       0.6381707 0.029406575 0.3620031 -0.057204932
0003f0 f4 35 68 3e 88 b2 de 3d e6 99 95 bf 37 91 87 3e
       0.22676831 0.10873896 -1.1687591 0.26477978

fc3.bias f4 [30]
000000 a1 65 96 bd c3 89 a9 3e 9b d8 82 3d d7 5c 5e 3e
       -0.07343603 0.33112916 0.063889705 0.21715103
000010 97 28 20 3e e5 f5 f7 3d cc d2 83 3e ab b1 90 3e
       0.15640484 0.121074475 0.25746763 0.2826055
000020 59 1a 19 3e 78 f7 4c be 47 a8 58 3e 81 28 10 3e
       0.14951457 -0.20016277 0.21157943 0.14077951
000030 f6 f0 07 be 1a 54 62 3e 86 73 97 3d 0d 32 06 be
       -0.13275513 0.22102395 0.07395081 -0.1310503
000040 80 85 90 3b 07 39 6e 3e 21 2f 25 be 84 ee a8 3e
       0.0044104457 0.23263942 -0.1613126 0.32994473
000050 c1 50 f2 bd e6 62 4f be b3 3d 0e 3e ba f3 b2 3e
       -0.11831809 -0.2025257 0.13890724 0.34951574
000060 5d d1 7b 3e 67 a5 55 be f8 4f e7 bd b6 cd 40 be
       0.24591585 -0.20863877 -0.1129455 -0.18828472
000070 23 be 20 3e bc cf f6 3c
       0.15697531 0.030128352

fc4.weight f4 [3, 30]
000000 88 78 4e bd af 72 ac 3e 49 db 2e 3e ff d4 fc 3e
       -0.050407916 0.33681247 0.17075838 0.49381253
000010 c2 34 ec 3d 59 01 37 bf 7a dc e8 be 3b 74 45 3f
       0.115335 -0.7148643 -0.4548071 0.7713048
000020 7d 2c 8d 3e 6d 82 47 bd e5 c7 20 3f 41 72 20 bf
       0.27573004 -0.048708368 0.62805015 -0.6267434
000030 17 66 07 3c e7 e8 26 bf e5 87 c1 be 94 46 0d be
       0.008264086 -0.6519913 -0.37798992 -0.13796455
000040 10 a7 a5 bc 89 75 dd 3e 78 ee ca 3d e2 22 fb 3e
       -0.020221263 0.43253735 0.099087656 0.4905005
000050 58 a2 14 bd 6f e1 2a 3c d3 ea dc bc f1 8b e4 3e
       -0.036287636 0.010429724 -0.026967442 0.44638017
000060 45 dd ce 3e d7 9e 48 bc f9 74 27 3e 42 58 cd be
       0.4040319 -0.012244902 0.16353215 -0.40106398
000070 a9 86 4b 3e f3 b1 a1 3e 4c a2 d1 bd e1 30 f3 3e
       0.19875588 0.31581077 -0.10236034 0.4749823
000080 a6 34 d3 bc be f1 13 3f 74 38 07 3f b3 76 96 be
       -0.02578194 0.57790744 0.52820516 -0.29387435
000090 f6 82 88 bf b3 44 e5 3e a8 42 19 3f 29 97 43 3e
       -1.0664966 0.44778976 0.59867334 0.19100632
0000a0 b9 eb cc 3e 4d 96 a2 be 1a f6 05 3f ed ff 18 bf
       0.40023592 -0.31755295 0.52328646 -0.5976551
0000b0 9e d0 37 bf 26 bb 0c 3f f6 c3 b5 bd ed cb eb 3e
       -0.718027 0.54973066 -0.08875267 0.4605402
0000c0 d7 b6 c8 bd db 3e ba 3e c4 df 0e 3e 7b 89 b2 bb
       -0.09800499 0.3637608 0.13952547 -0.005448518
0000d0 d1 68 28 be cf 0f 9b 3e dc f9 f9 3e 1b a0 79 3c
       -0.16446234 0.30285498 0.4882344 0.015235926
0000e0 fa ca 9e bc 99 55 03 bf bb 85 13 3f c0 9f ca 3e
       -0.019383896 -0.51302487 0.5762593 0.39575005
0000f0 a8 21 07 be ce a4 da 3e 50 b2 0f 3e a2 92 38 3e
       -0.13196433 0.4270386 0.14032865 0.18024686
000100 4f 6a df 3e 8b af d3 be ac b9 10 bf b5 09 79 3e
       0.43635795 -0.41344866 -0.5653331 0.24320109
000110 b2 b5 88 3e f0 dd e7 3d e3 1d b0 3e 54 78 2e bf
       0.26701123 0.11321628 0.34397802 -0.68152356
000120 40 fc d3 3e 7a 87 22 bf 05 5e 0d bf a0 8b ab 3e
       0.4140339 -0.6348797 -0.5522159 0.33504963
000130 b0 10 2f 3e 98 a5 7f 3e fc 62 88 3d 90 53 11 3f
       0.1709621 0.24965513 0.06659505 0.5676813
000140 3e 3b dd bd ef e5 26 3e 90 c4 d7 bd 12 aa a2 3e
       -0.10802315 0.1629865 -0.10535538 0.31770378
000150 0e 6b 49 3d 4e 82 a0 3c 34 dd 10 3e 60 ee b2 be
       0.04917436 0.019593384 0.14146882 -0.3494749
000160 17 08 10 3c 39 e9 e6 3d
       0.008790991 0.112749524

fc4.bias f4 [3]
000000 a5 76 34 3e 09 72 87 3e a4 12 ca be
       0.17623384 0.2645419 -0.39467347

exp_avg f4 [30, 5]
000000 7a f9 f3 3c 2b a1 75 3c 0e 17 e6 3c 66 17 05 3b
       0.029782046 0.014992039 0.028087165 0.0020308136
000010 66 17 05 bb 00 00 00 00 00 00 00 00 00 00 00 00
       -0.0020308136 0.0 0.0 0.0
000020 00 00 00 00 00 00 00 00 35 e2 a0 bc b4 bf 37 bc
       0.0 0.0 -0.019639114 -0.011215139
000030 21 93 e1 bc 87 51 e8 3c 87 51 e8 bc d9 17 09 bc
       -0.027535977 0.028359188 -0.028359188 -0.008367502
000040 e5 33 81 bc fe 2e 37 bc 1a 5a 25 bc 1a 5a 25 3c
       -0.015771816 -0.011180637 -0.010092283 0.010092283
000050 a0 bf 4d 39 e9 a5 07 ba e3 89 4a b9 70 66 a8 3b
       0.0001962171 -0.0005174564 -0.00019315588 0.0051391646
000060 70 66 a8 bb 0d ef bc bc 1c 8d 8e bc 68 ba d3 bc
       -0.0051391646 -0.023063207 -0.01740127 -0.025845721
000070 8c 76 67 3c 8c 76 67 bc 2f 82 8b 3c 2a 3d fc 3b
       0.014127385 -0.014127385 0.01702985 0.007697721
000080 f7 17 0e 3d 76 9c 1e bd 76 9c 1e 3d 88 e4 3a bb
       0.034690823 -0.03872343 0.03872343 -0.0028517563
000090 05 8e 3d bb 45 6d fb b9 3d fe 06 3b 3d fe 06 bb
       -0.0028923762 -0.00047955863 0.0020598315 -0.0020598315
0000a0 42 49 4f 3c 92 92 f0 3b 1b 9a d0 3a 78 d5 91 3a
       0.012651743 0.0073416913 0.0015915068 0.0011126241
0000b0 78 d5 91 ba cf cf e6 3a 83 11 0b 3a 1b 02 00 ba
       -0.0011126241 0.0017609539 0.00053050386 -0.0004883126
0000c0 a7 53 92 bb a7 53 92 3b 35 a4 3c 3c 5f 6f 0c 3c
       -0.0044655385 0.0044655385 0.011513759 0.008571475
0000d0 b8 57 5a 3c 13 cf 16 bc 13 cf 16 3c 00 00 00 00
       0.013326578 -0.009204644 0.009204644 0.0
0000e0 00 00 00 00 00 00 00 00 00 00 00 00 00 00 00 00
       0.0 0.0 0.0 0.0
0000f0 aa 81 ea 3a aa 69 83 3a e4 d2 0c bb f1 ce 8e 3b
       0.0017891426 0.0010025997 -0.0021488005 0.0043581654
000100 f1 ce 8e bb 04 00 00 00 04 00 00 00 00 00 00 00
       -0.0043581654 6e-45 6e-45 0.0
000110 04 00 00 80 04 00 00 00 2e 7b 14 3c c6 36 ac 3b
       -6e-45 6e-45 0.009062571 0.005255553
000120 c1 65 24 bc 6b 3d 08 bd 6b 3d 08 3d 30 2f ce bc
       -0.010034026 -0.033261698 0.033261698 -0.025168985
000130 d2 ac 94 bc 6d cd 05 bd cb f0 d0 3c cb f0 d0 bc
       -0.018148813 -0.032666612 0.025505444 -0.025505444
000140 3f 85 41 bc 2a 4a b8 bb 3e 0e ab bc 8e 67 05 bd
       -0.0118115535 -0.0056240754 -0.020880815 -0.03256946
000150 8e 67 05 3d f8 a6 bb bc 94 88 4d bc cb 19 c2 bc
       0.03256946 -0.022906765 -0.01254477 -0.02369394
000160 75 d1 af 3c 75 d1 af bc dc 9f 94 3c f5 c1 38 3c
       0.021462182 -0.021462182 0.018142633 0.011276712
000170 c1 33 ab 3c f9 81 5c bc f9 81 5c 3c 33 e3 19 bc
       0.020898702 -0.013458722 0.013458722 -0.009392547
000180 eb b2 ea bb 63 13 66 bb ea 0d 63 3b ea 0d 63 bb
       -0.007162442 -0.003510677 0.0034645745 -0.0034645745
000190 41 22 2a ba a5 90 45 ba 0b b0 34 3b 99 02 0b bc
       -0.00064900896 -0.00075365073 0.002757075 -0.008484506
0001a0 99 02 0b 3c 95 b0 20 3c 4d 59 07 3c 48 6e fe 3b
       0.008484506 0.009807725 0.008261037 0.0077646114
0001b0 c3 16 3c 3b c3 16 3c bb 35 73 f0 3a 66 41 e5 ba
       0.002870009 -0.002870009 0.0018344881 -0.0017490804
0001c0 c7 44 82 ba de a2 0d 3c de a2 0d bc c9 f8 2b bd
       -0.000993871 0.008644788 -0.008644788 -0.041985307
0001d0 dc ac d6 bc c5 ce 3f bd 33 ba 3d 3d 33 ba 3d bd
       -0.026205473 -0.04682805 0.04632015 -0.04632015
0001e0 00 00 00 00 00 00 00 00 00 00 00 00 00 00 00 00
       0.0 0.0 0.0 0.0
0001f0 00 00 00 00 c4 0a 86 3b c0 35 8a 3b 3b 51 35 3c
       0.0 0.004090639 0.0042178333 0.01106673
000200 fa b4 68 bc fa b4 68 3c a1 90 47 3c e9 01 2c bc
       -0.014203304 0.014203304 0.012180478 -0.010498502
000210 7e 4c 18 3d b8 92 0d bd b8 92 0d 3d 21 3f ae 3b
       0.037182324 -0.03456375 0.03456375 0.005317584
000220 00 0c df 3b 0a da 0c bb 0e b8 2f 3c 0e b8 2f bc
       0.0068068504 -0.0021492266 0.010725034 -0.010725034
000230 cb ec ba bc 00 bd b7 bc 92 9b 8d bc 84 36 a8 38
       -0.02281799 -0.02242899 -0.017286096 8.0210186e-05
000240 80 36 a8 b8 7b 6e aa 3b 38 85 0e 3a 78 57 39 ba
       -8.021016e-05 0.0052011586 0.0005436721 -0.0007070224
000250 f0 0f 2e bc f0 0f 2e 3c
       -0.010623917 0.010623917

exp_avg_sq f4 [30, 5]
000000 87 a8 bd 3c 69 1d 26 3c b7 a9 e0 3c 2d 44 99 3b
       0.02315165 0.010138848 0.027424676 0.0046773166
000010 2d 44 99 3b 00 00 00 00 00 00 00 00 00 00 00 00
       0.0046773166 0.0 0.0 0.0
000020 00 00 00 00 00 00 00 00 2d 0b 3d 3c 37 bf 07 3c
       0.0 0.0 0.011538309 0.008285335
000030 70 cc 82 3c 68 f4 d6 3b 68 f4 d6 3b 87 d4 29 3c
       0.015966624 0.006559897 0.006559897 0.010365612
000040 b9 ff ba 3b 92 3c 80 3c 15 10 bb 3b 15 10 bb 3b
       0.005706754 0.015653882 0.0057087042 0.0057087042
000050 c5 38 73 3b 6c 30 61 3b 90 83 71 3b a1 52 0a 3a
       0.0037112695 0.0034361137 0.00368521 0.0005276595
000060 a1 52 0a 3a 76 06 17 3c 59 c2 06 3c 4b 53 15 3c
       0.0005276595 0.009217849 0.008225047 0.009114097
000070 94 2a 2f 3b 94 2a 2f 3b e2 f3 86 3c df ef 1d 3c
       0.002672826 0.002672826 0.016473714 0.009639709
000080 20 09 aa 3c fe a3 27 3c fe a3 27 3c e0 e9 26 3b
       0.020756304 0.01023197 0.01023197 0.002546899
000090 16 ca ec 3a d6 d2 52 3b bc a5 c5 3a bc a5 c5 3a
       0.0018065597 0.0032169125 0.00150793 0.00150793
0000a0 74 28 48 3c 62 59 a8 3a 2f 59 aa 3c 33 99 61 3c
       0.012216676 0.0012844021 0.02079448 0.013769436
0000b0 33 99 61 3c 45 7d 6e 3b 44 2a 69 3b 94 fe 5d 3b
       0.013769436 0.0036390584 0.003557817 0.0033873664
0000c0 ac 36 39 3a ac 36 39 3a e0 00 85 3b ea bd 78 3b
       0.00070653367 0.00070653367 0.004058942 0.0037954994
0000d0 0f 83 80 3b ce 11 4f 3a ce 11 4f 3a 00 00 00 00
       0.0039218734 0.00078990764 0.00078990764 0.0
0000e0 00 00 00 00 00 00 00 00 00 00 00 00 00 00 00 00
       0.0 0.0 0.0 0.0
0000f0 52 9e 11 3b 2b 00 40 39 80 98 91 3b 85 9a 44 3b
       0.002221961 0.0001831061 0.0044432282 0.0029999327
000100 85 9a 44 3b f3 c4 f0 20 1c ad 86 23 00 00 00 00
       0.0029999327 4.0787912e-19 1.4601624e-17 0.0
000110 28 9f 37 24 28 9f 37 24 ca f8 cd 3a fe d9 4e 3a
       3.981661e-17 3.981661e-17 0.0015714404 0.000789076
000120 2c 98 88 3b e5 0c ab 3c e5 0c ab 3c f5 a6 ff 3b
       0.004168531 0.020880172 0.020880172 0.0078018853
000130 a0 6d ac 3b 96 2b 4c 3c c8 5c be 3b c8 5c be 3b
       0.0052620918 0.012461564 0.0058094 0.0058094
000140 0d cb 08 3b 37 cd 18 3a 76 bb 0b 3b bb 9b db 3b
       0.002087298 0.0005828919 0.0021321452 0.006701914
000150 bb 9b db 3b 08 1a b3 3a 1e 27 16 3a b9 4b 06 3b
       0.006701914 0.0013664374 0.0005727875 0.0020491912
000160 7e ec a8 3a 7e ec a8 3a 8c 66 82 3b f1 61 4a 3b
       0.0012887863 0.0012887863 0.0039795097 0.0030881132
000170 4e fb 9a 3b 16 a8 06 3b 16 a8 06 3b b1 7b 49 3b
       0.004729665 0.0020546964 0.0020546964 0.0030743892
000180 68 bb ad 3a 39 2f 9e 3b 12 7c 1e 3b 12 7c 1e 3b
       0.0013254704 0.0048274067 0.0024182838 0.0024182838
000190 a1 69 04 3b 2e c7 50 3a 32 21 64 3b 99 d0 b6 3a
       0.0020204561 0.00079642504 0.0034809825 0.0013947665
0001a0 99 d0 b6 3a a2 2f a9 3b e5 89 c1 3a 80 63 1c 3c
       0.0013947665 0.005163149 0.0014765827 0.009545207
0001b0 1b ea e4 3b 1b ea e4 3b 87 52 12 3b 30 b7 7f 3a
       0.0069859154 0.0069859154 0.0022327022 0.0009754775
0001c0 f0 f3 3f 3b a4 4f a3 3a a4 4f a3 3a 20 25 a6 3c
       0.0029289685 0.0012459648 0.0012459648 0.020281374
0001d0 0b ef 93 3c 41 8f b0 3c e7 a9 d0 3b e7 a9 d0 3b
       0.01805832 0.021552684 0.00636791 0.00636791
0001e0 00 00 00 00 00 00 00 00 00 00 00 00 00 00 00 00
       0.0 0.0 0.0 0.0
0001f0 00 00 00 00 88 47 90 3b 82 ef 11 3b 42 58 cc 3b
       0.0 0.0044030584 0.0022268002 0.006236107
000200 b3 6c 37 3b b3 6c 37 3b 76 00 9d 3c 29 e5 3d 3c
       0.0027988374 0.0027988374 0.019165259 0.011590281
000210 9d 1f e7 3c 0a 0d 05 3c 0a 0d 05 3c c9 25 e7 3b
       0.028213317 0.008120785 0.008120785 0.007054065
000220 9a f4 35 3b 78 80 68 3c be 26 38 3c be 26 38 3c
       0.0027764202 0.014190786 0.011239706 0.011239706
000230 2f 0f 98 3b cc 59 51 3b 4d eb d5 3b bb ee 5b 3b
       0.004640482 0.0031944392 0.006528294 0.0033559042
000240 bb ee 5b 3b d9 cb 93 3c 17 b4 75 3c ae 41 a8 3c
       0.0033559042 0.018041538 0.01499655 0.020539131
000250 90 c8 37 3b 90 c8 37 3b
       0.0028043129 0.0028043129

exp_avg f4 [30]
000000 8d 9d 58 3c 00 00 00 00 f1 10 2b bd 9c 06 53 bc
       0.013221157 0.0 -0.041764203 -0.012879994
000010 59 24 26 bb ef 90 e7 bc 7c eb 76 3d f1 37 cb 3b
       -0.0025351255 -0.028267352 0.06028317 0.006201737
000020 ab 36 d8 bb d5 a4 82 bb a7 03 71 3c 00 00 00 00
       -0.006598314 -0.0039869347 0.014710343 0.0
000030 67 8f 1e bc 04 00 00 00 1e 19 87 bd b3 11 3e bd
       -0.0096777445 6e-45 -0.065965876 -0.046403598
000040 ce 3c 3e bd 74 63 ea bc 0e 9d e1 3c 84 c9 85 3a
       -0.046444707 -0.028611876 0.02754071 0.0010207151
000050 38 c2 11 3c aa dc 52 bc d6 92 61 bc 0e da 82 bd
       0.008896403 -0.012869993 -0.013767919 -0.06389247
000060 00 00 00 00 c4 6f 53 3c c4 43 e7 3c 7d 56 fe bc
       0.0 0.012905065 0.028230555 -0.0310471
000070 e0 31 0e 3a 08 6a 34 bc
       0.0005424302 -0.011011608

exp_avg_sq f4 [30]
000000 1d 25 29 3d 00 00 00 00 d2 ac a9 3c 32 53 f2 3c
       0.04129516 0.0 0.02071229 0.029580686
000010 8c 26 9b 3b 56 21 2a 3c 60 2e 15 3d 9d 07 93 3b
       0.0047348198 0.0103839245 0.03642118 0.0044869916
000020 7d 13 d1 3c 1b 58 a2 3b 49 fc 8f 3b 00 00 00 00
       0.025521988 0.0049543506 0.0043940884 0.0
000030 a1 10 d3 3b 94 f0 be 24 c5 94 98 3d b2 56 8e 3c
       0.0064411913 8.280692e-17 0.074502505 0.017375324
000040 d0 ab 8c 3c 90 1a 8e 3b 48 88 db 3b 9a 0c d5 3b
       0.01717177 0.0043366626 0.0066995956 0.0065017464
000050 16 57 ca 3b 8d 51 85 3c 47 99 ce 3b 91 24 e2 3c
       0.0061749322 0.016274238 0.006304893 0.027605327
000060 00 00 00 00 c1 42 06 3c 73 49 00 3d f0 b3 f7 3c
       0.0 0.008194626 0.031320047 0.030237168
000070 e2 19 40 3c 10 09 d2 3c
       0.011724921 0.025639087

exp_avg f4 [30, 30]
000000 04 00 00 00 00 00 00 00 04 00 00 00 04 00 00 00
       6e-45 0.0 6e-45 6e-45
000010 04 00 00 00 00 00 00 00 04 00 00 00 04 00 00 00
       6e-45 0.0 6e-45 6e-45
000020 04 00 00 00 04 00 00 00 04 00 00 00 00 00 00 00
       6e-45 6e-45 6e-45 0.0
000030 04 00 00 80 00 00 00 00 00 00 00 00 04 00 00 00
       -6e-45 0.0 0.0 6e-45
000040 00 00 00 00 04 00 00 00 04 00 00 00 04 00 00 00
       0.0 6e-45 6e-45 6e-45
000050 04 00 00 00 04 00 00 00 04 00 00 00 04 00 00 00
       6e-45 6e-45 6e-45 6e-45
000060 00 00 00 00 04 00 00 00 00 00 00 00 04 00 00 00
       0.0 6e-45 0.0 6e-45
000070 04 00 00 00 00 00 00 00 20 ef 6e 39 00 00 00 00
       6e-45 0.0 0.0002278653 0.0
000080 75 fe e8 38 b9 08 4f 39 b0 15 ff 38 6f a2 89 3a
       0.000111100184 0.00019744308 0.00012163387 0.001050068
000090 8d b5 1d 3a d9 6b c6 3a ad 31 aa b7 7f 0e 0e 38
       0.0006016128 0.0015138342 -2.0288711e-05 3.386894e-05
0000a0 53 98 8b 3a 00 00 00 00 c2 75 bb b7 04 00 00 80
       0.0010650255 0.0 -2.2346972e-05 -6e-45
0000b0 af 13 11 39 04 e5 2e 39 55 e8 d4 37 56 8d 3f b8
       0.0001383561 0.00016679248 2.5380557e-05 -4.5669578e-05
0000c0 d9 56 aa 3a 2c 35 f6 3a 2c 24 bd 3a 0a 90 04 38
       0.0012995853 0.0018784157 0.0014430336 3.16054e-05
0000d0 ab d5 2a 3a 81 dd 88 3a 00 00 00 00 2b 41 c0 3a
       0.00065168244 0.001044199 0.0 0.0014667859
0000e0 6d 42 98 39 19 d5 9d 39 1f 59 c4 b8 62 28 d8 39
       0.0002904119 0.00030104144 -9.3626084e-05 0.00041228818
0000f0 fd 63 05 bc 00 00 00 00 a2 b8 25 bb 00 f1 2a 3b
       -0.008141515 0.0 -0.0025287052 0.0026083589
000100 3f f0 10 bb 66 21 2a bc 80 5f 8d bb b9 a4 37 bc
       -0.0022115854 -0.010383939 -0.004314363 -0.011208707
000110 31 c6 aa 3a 88 30 83 3a 43 56 54 bc 00 00 00 00
       0.0013029036 0.001000897 -0.0129600195 0.0
000120 d5 75 6b ba 04 00 00 00 bc 94 5e bb 43 3e 7e bb
       -0.0008982097 6e-45 -0.0033963164 -0.0038794435
000130 9f 46 25 ba f8 26 53 bb 34 e5 5b bc f7 de 95 bc
       -0.0006304774 -0.0032219272 -0.0134213455 -0.018294794
000140 1c 43 94 bc 51 12 76 bb 45 2d 85 bb 4b 74 46 bc
       -0.018098406 -0.0037547539 -0.0040642344 -0.012112687
000150 00 00 00 00 26 1f 30 bc a1 ab 8d 39 fd 6e 12 bc
       0.0 -0.010749614 0.0002702149 -0.0089375945
000160 29 fe cf 3b ab 20 81 bb 21 60 93 bc 00 00 00 00
       0.006347437 -0.003940662 -0.017990174 0.0
000170 95 31 05 bc 52 d4 b6 3a 81 cc 0c bc 3a 2b 15 ba
       -0.008129497 0.0013948774 -0.008593679 -0.000569034
000180 b8 01 2c 3b 6e 61 23 bc ff be 8f b5 8d 00 6b ba
       0.0026246142 -0.0099719595 -1.0709917e-06 -0.00089646206
000190 eb 0a 87 bc 00 00 00 00 19 52 84 bb 00 00 00 00
       -0.016484698 0.0 -0.004038107 0.0
0001a0 b6 6a 3a b6 a3 92 34 bc 04 00 00 00 00 5a 24 bc
       -2.7778274e-06 -0.011021289 6e-45 -0.010031223
0001b0 a4 53 a5 bc 32 7f 49 bc 37 e0 c3 bc 44 43 06 bc
       -0.020181485 -0.012298392 -0.023910625 -0.008194748
0001c0 73 75 17 bb 7c 30 c6 bc 00 00 00 00 63 19 db 3a
       -0.0023110777 -0.024193041 0.0 0.001671594
0001d0 30 57 20 3b 80 4d 95 bc bd 88 58 3a 3d f6 6e 3a
       0.002446603 -0.018225431 0.00082601217 0.0009115672
0001e0 00 00 00 00 00 00 00 00 00 00 00 00 04 00 00 00
       0.0 0.0 0.0 6e-45
0001f0 00 00 00 00 04 00 00 00 04 00 00 00 04 00 00 00
       0.0 6e-45 6e-45 6e-45
000200 00 00 00 00 04 00 00 00 04 00 00 00 00 00 00 00
       0.0 6e-45 6e-45 0.0
000210 00 00 00 00 00 00 00 00 04 00 00 00 00 00 00 00
       0.0 0.0 6e-45 0.0
000220 04 00 00 00 04 00 00 00 04 00 00 00 04 00 00 00
       6e-45 6e-45 6e-45 6e-45
000230 04 00 00 00 00 00 00 00 04 00 00 00 00 00 00 00
       6e-45 0.0 6e-45 0.0
000240 00 00 00 00 04 00 00 00 04 00 00 00 00 00 00 00
       0.0 6e-45 6e-45 0.0
000250 04 00 00 00 04 00 00 00 3b 0b 31 ba 00 00 00 00
       6e-45 6e-45 -0.00067536876 0.0
000260 86 24 8d 36 e0 bf 37 ba c7 70 57 38 ac a3 37 3b
       4.2063793e-06 -0.00070094876 5.1365027e-05 0.002802114
000270 a9 53 83 3a 23 fc 19 3b 4b 64 51 ba 45 2d 8b b9
       0.001001944 0.0023496232 -0.0007987662 -0.00026545874
000280 1b f6 f1 39 00 00 00 00 70 73 0e ba 04 00 00 00
       0.00046150465 0.0 -0.00054340716 6e-45
000290 3e f3 70 3a 3d 94 91 39 25 78 33 39 2e ef b8 ba
       0.00091915193 0.00027767 0.00017115528 -0.0014109367
0002a0 af 7b 89 38 39 10 93 3b ec 44 17 3b ea b2 2b 37
       6.555707e-05 0.004488018 0.0023081852 1.0234051e-05
0002b0 6c 4b 90 3a 17 e2 fe 3a 00 00 00 00 10 a4 1a 3b
       0.0011008806 0.0019446042 0.0 0.0023596324
0002c0 44 0b b5 b8 12 0f 57 3a 0d 17 16 bb e3 a1 8b 3a
       -8.632851e-05 0.0008203845 -0.0022901923 0.0010653104
0002d0 1c 72 ed 3a 00 00 00 00 5d fa 8e b7 fe c2 b9 ba
       0.0018115672 0.0 -1.7044304e-05 -0.0014172492
0002e0 1d 58 ec 39 c4 7f c7 3b 90 48 13 3b 22 dd 9c 3b
       0.00045079077 0.006088229 0.002247367 0.0047871033
0002f0 ea 1f 8d b7 d6 ed ea b9 6a f6 87 3b 00 00 00 00
       -1.6823371e-05 -0.0004480916 0.004149248 0.0
000300 e0 4c ab 36 00 00 00 00 69 3f 0a 3b da 9e 12 38
       5.1051466e-06 0.0 0.0021094924 3.4957055e-05
000310 37 c9 ce 39 ef 63 fe 39 6d 19 8a 3b ac 71 fa 3b
       0.000394413 0.00048521112 0.004214457 0.0076429453
000320 38 1c c6 3b d4 48 ae 39 04 1c 1a 3b a4 2c 29 3b
       0.0060458444 0.00033242127 0.0023515234 0.0025813961
000330 00 00 00 00 42 08 af 3b 9a e7 5f b7 dd 41 9c 3a
       0.0 0.0053415606 -1.334576e-05 0.0011921484
000340 59 60 44 bb b8 fc 25 3b 08 70 0e 3d 00 00 00 00
       -0.0029964654 0.0025327634 0.03477481 0.0
000350 ec 0b 14 3c 9c b2 dd 3c 0c c7 f2 3b 6b 35 3e 3b
       0.0090360455 0.027062707 0.007408982 0.0029023539
000360 4f 0e 51 3c 3c 3a f3 3c 9c 34 0a 3c 91 e1 2d 3c
       0.012759759 0.029690854 0.008435395 0.010612861
000370 d2 5f 28 3d 00 00 00 00 d2 3a 12 3c 00 00 00 00
       0.041107006 0.0 0.008925157 0.0
000380 90 0e d4 3b 08 d2 16 3c 95 15 6f 3b e4 c2 00 3d
       0.0064714625 0.009205349 0.003648137 0.031435862
000390 74 f0 6c 3d 7d 68 1e 3c 9d 2d cd 3c 9e a9 18 3c
       0.0578465 0.009668467 0.025046164 0.009317784
0003a0 a6 bb 3c 3c a1 8d 5e 3c 00 00 00 00 74 75 f7 3c
       0.011519348 0.013583572 0.0 0.030207373
0003b0 8c 4a 99 3c ca 14 62 3c f4 8c 1b 3d bf 96 9e 3c
       0.018712305 0.013798902 0.03797622 0.01935899
0003c0 50 40 ad 3b 00 00 00 00 c4 7d 08 3b e6 b7 27 bb
       0.0052872077 0.0 0.0020826915 -0.002559179
0003d0 94 2f ae 3a 4c b9 0f 3c db 0b 1b 3b 40 01 04 3c
       0.0013289326 0.008772206 0.002365819 0.008056939
0003e0 2b 55 31 b8 73 ce 73 ba f3 f4 00 3c 00 00 00 00
       -4.2279407e-05 -0.00093004777 0.0078709 0.0
0003f0 e6 c0 df 39 04 00 00 00 1a bf 47 3b 7d 95 3c 3b
       0.00042677595 6e-45 0.0030478896 0.0028775625

exp_avg_sq f4 [30, 30]
000000 e0 04 b8 2a 00 00 00 00 0d 24 0d 29 64 03 45 25
       3.2688349e-13 0.0 3.133956e-14 1.7088175e-16
000010 87 42 2f 2a 00 00 00 00 d2 9a e4 23 36 af 74 28
       1.5566204e-13 0.0 2.4785378e-17 1.3582714e-14
000020 02 ea 8d 28 5e 82 0d 24 2d dc cd 2a 00 00 00 00
       1.575563e-14 3.0684927e-17 3.6568093e-13 0.0
000030 61 0f c3 29 00 00 00 00 00 00 00 00 1e 41 86 29
       8.6624074e-14 0.0 0.0 5.9620914e-14
000040 00 00 00 00 3e 84 52 2a e4 7a 03 2b d0 4f 6b 28
       0.0 1.8697628e-13 4.6711094e-13 1.3062427e-14
000050 02 49 7b 2a 60 a1 92 29 71 c1 1e 24 aa 52 77 29
       2.2318608e-13 6.5116966e-14 3.442464e-17 5.4916717e-14
000060 00 00 00 00 4c 2e 08 29 00 00 00 00 18 14 91 29
       0.0 3.0238222e-14 0.0 6.442779e-14
000070 26 e8 93 28 00 00 00 00 96 90 17 37 00 00 00 00
       1.6420957e-14 0.0 9.033965e-06 0.0
000080 0f 4d 65 35 cc ae 8a 37 90 55 9b 35 5e 41 80 37
       8.5421283e-07 1.6532278e-05 1.1573302e-06 1.5289228e-05
000090 a5 9f 5e 37 8d d4 5f 38 b9 36 16 35 36 14 0d 36
       1.3269401e-05 5.3365296e-05 5.5958986e-07 2.1022402e-06
0000a0 a0 d0 0b 38 00 00 00 00 b7 f2 1b 35 0f 7f b8 1e
       3.333448e-05 0.0 5.8095196e-07 1.9534308e-20
0000b0 c6 97 14 36 c9 b0 80 35 8c 53 93 34 82 58 aa 36
       2.2142062e-06 9.588194e-07 2.7441672e-07 5.0766985e-06
0000c0 32 81 73 38 ca a4 3b 38 e0 2a 16 38 fe 50 63 35
       5.8056037e-05 4.4737746e-05 3.5802717e-05 8.468195e-07
0000d0 d5 40 43 37 e6 52 70 37 00 00 00 00 ea d6 7d 38
       1.1638001e-05 1.4324416e-05 0.0 6.0520055e-05
0000e0 5f 04 3f 37 17 8e 4c 36 c6 7d 78 37 59 d6 2d 37
       1.1385505e-05 3.0481076e-06 1.4811236e-05 1.036151e-05
0000f0 7c 6d be 3a 00 00 00 00 c7 ae 1a 39 b0 db 88 3b
       0.0014528478 0.0 0.00014751694 0.0041765794
000100 5d 16 ea 38 80 c3 25 3b 7f e8 50 3b fa 55 20 3c
       0.00011162155 0.002529353 0.003187686 0.009786123
000110 8a f3 90 38 a5 ed 0d 3a ae 8a b9 3b 00 00 00 00
       6.911818e-05 0.0005414135 0.005662284 0.0
000120 ad 3a 2a 38 d6 63 46 1e ba 0e 23 3a 09 7a 36 39
       4.0585805e-05 1.0502678e-20 0.0006220151 0.00017402334
000130 ef f6 a6 38 73 23 46 3a 57 a9 20 3c 84 0a fb 3b
       7.961492e-05 0.0007558383 0.009805999 0.0076611657
000140 86 ff 9c 3b 36 4c 0e 39 aa 51 0a 3b 3b 21 de 3a
       0.004791203 0.00013570566 0.0021105804 0.0016947159
000150 00 00 00 00 c5 4b 60 3c 53 6f 40 3b 7f ad 0d 3a
       0.0 0.01368994 0.002936323 0.0005404576
000160 dc eb 6c 3b b7 b5 3a 3b 94 c7 bc 3a 00 00 00 00
       0.0036151325 0.0028489658 0.0014402741 0.0
000170 81 5e bd 39 66 f0 8d 37 59 eb 4f 3a 55 87 df 3b
       0.000361193 1.6920454e-05 0.0007931493 0.0068215528
000180 71 d7 30 3a f5 c9 8f 3c 5c 7b be 35 d9 59 11 39
       0.00067459705 0.017552355 1.4192005e-06 0.00013861748
000190 6e 48 f1 3b 00 00 00 00 59 7c 74 39 00 00 00 00
       0.0073633706 0.0 0.00023315976 0.0
0001a0 5d 3e b9 35 76 8e 09 3a 07 6d a4 2d a2 f8 8a 39
       1.3801724e-06 0.00052473636 1.869306e-11 0.00026506657
0001b0 7f 7c 6e 3c e4 bb 8f 3c 2d 3a 93 3c 7b 65 19 3a
       0.014556049 0.017545648 0.017972076 0.00058516086
0001c0 8c d1 89 3b fb 8f 27 3c 00 00 00 00 dd 95 97 3b
       0.004205888 0.010227199 0.0 0.0046260194
0001d0 43 6e 13 38 6e d7 09 3b 1d 77 c6 36 50 89 2d 3a
       3.515022e-05 0.0021032947 5.9147264e-06 0.00066198874
0001e0 00 00 00 00 00 00 00 00 00 00 00 00 49 f0 b1 24
       0.0 0.0 0.0 7.716857e-17
0001f0 00 00 00 00 3a 36 ca 24 a6 1f 65 24 a7 31 46 25
       0.0 8.76954e-17 4.9683267e-17 1.7190585e-16
000200 00 00 00 00 7d 32 39 24 86 b7 d2 22 00 00 00 00
       0.0 4.0158246e-17 5.7114927e-18 0.0
000210 00 00 00 00 00 00 00 00 91 7d ce 23 00 00 00 00
       0.0 0.0 2.2387744e-17 0.0
000220 86 4d ef 21 85 c7 8b 1a fd b0 05 24 ed d4 bc 24
       1.621579e-18 5.7811394e-23 2.8989693e-17 8.1892714e-17
000230 62 4b 06 1d 00 00 00 00 62 07 4f 24 00 00 00 00
       1.7773724e-21 0.0 4.4892223e-17 0.0
000240 00 00 00 00 5d 26 7d 25 4d 9e 5e 23 00 00 00 00
       0.0 2.195725e-16 1.2068166e-17 0.0
000250 cd 6a 07 24 a9 5f c5 23 5e e6 7e 39 00 00 00 00
       2.9363922e-17 2.1399296e-17 0.00024309146 0.0
000260 38 44 c9 37 9c af a4 39 d1 a3 90 37 e0 d4 44 39
       2.3992834e-05 0.00031411357 1.724242e-05 0.00018771319
000270 ca 98 7b 39 01 19 44 3a 79 f0 83 37 dd 3d 2a 38
       0.00023994144 0.00074805325 1.5728396e-05 4.0588773e-05
000280 d1 12 1c 3a 00 00 00 00 7f e9 5c 37 b1 c8 06 1e
       0.00059537316 0.0 1.3167387e-05 7.135403e-21
000290 f8 15 45 38 76 5b db 37 fe 8b c9 36 8c 5f 14 39
       4.698892e-05 2.6149424e-05 6.006564e-06 0.00014149974
0002a0 f2 45 82 3a 8a c9 18 3a c0 14 01 3a eb cd ad 37
       0.0009939058 0.00058283715 0.00049240515 2.0719095e-05
0002b0 cc d0 24 39 dc 5e 37 39 00 00 00 00 88 d6 88 3a
       0.00015718042 0.00017487578 0.0 0.0010439912
0002c0 61 c9 66 39 f8 2a 85 38 ba 4a 95 39 a5 6f 60 39
       0.00022009529 6.349938e-05 0.0002847517 0.00021403896
0002d0 fa 3a a5 38 00 00 00 00 34 5c 1e 34 3b 45 d2 3a
       7.878798e-05 0.0 1.474844e-07 0.0016042361
0002e0 83 88 8e 37 3d 43 73 3a 15 16 9f 3a 95 d4 68 3b
       1.6991287e-05 0.00092797336 0.0012137318 0.00355271
0002f0 48 40 b1 31 b5 72 57 39 e7 0f c8 3a 00 00 00 00
       5.158686e-09 0.0002054673 0.0015263528 0.0
000300 85 f5 21 36 00 00 00 00 a5 64 7a 39 fe c8 01 34
       2.413378e-06 0.0 0.00023879351 1.2087182e-07
000310 ba 1b 00 38 f6 1c cd 37 df e0 3d 3b 3e 59 31 3b
       3.05434e-05 2.445139e-05 0.0028973145 0.002706125
000320 2a 4b 98 3a 4b 6e ee 36 3d 8d 4a 3a ed 0e 94 39
       0.001161908 7.1057925e-06 0.00077267346 0.0002823988
000330 00 00 00 00 50 7a a8 3b 39 d2 93 3a 6a b1 f4 37
       0.0 0.005141534 0.0011277861 2.9169682e-05
000340 25 53 b6 3a c0 5b 8f 3a d8 dd 83 3c 00 00 00 00
       0.0013910277 0.0010937378 0.016096994 0.0
000350 92 ae 93 3a 44 2e a7 3c 9e 42 82 3a f8 09 67 3b
       0.0011267236 0.020407803 0.0009938066 0.0035253745
000360 25 22 5a 3c 56 a4 18 3d 9a 95 97 3a 0c 1c 19 3b
       0.013313805 0.037266098 0.001156497 0.0023362665
000370 e3 c2 29 3d 00 00 00 00 ab 31 5a 3a 00 00 00 00
       0.041445624 0.0 0.0008323441 0.0
000380 a9 eb db 39 89 60 7e 3a 63 07 94 38 f7 b2 27 3c
       0.00041946516 0.0009703716 7.058566e-05 0.01023554
000390 40 2b 8e 3d be be cf 3c ba 36 df 3c 42 6a 71 3a
       0.06941843 0.025359508 0.027247775 0.0009209254
0003a0 36 f0 c7 3b 4c 20 b9 3b 00 00 00 00 fa 69 75 3d
       0.0061016334 0.005649602 0.0 0.05991552
0003b0 ae 91 5b 3c b0 10 fb 3a 78 2b b7 3c 17 5b b7 3b
       0.013401432 0.0019154754 0.022359595 0.0055955756
0003c0 6d 4a 96 39 00 00 00 00 5a dd 80 37 cd e8 57 3b
       0.0002866568 0.0 1.5361864e-05 0.0032945157
0003d0 20 9c aa 38 75 11 ff 3a 48 45 23 3b 33 0e f6 3b
       8.135312e-05 0.0019460159 0.002491312 0.007509017
0003e0 80 48 53 32 20 de df 39 51 bb 5c 3b 00 00 00 00
       1.2298301e-08 0.0004269937 0.0033680985 0.0
0003f0 27 63 ba 37 55 42 69 1b 37 0a 01 3a 91 f6 b9 37
       2.22191e-05 1.9294741e-22 0.00049224816 2.2168535e-05

exp_avg f4 [30]
000000 04 00 00 00 4e 9d 51 3a e7 df a7 bb b0 6b 53 bc
       6e-45 0.00079961575 -0.005123127 -0.012904093
000010 04 00 00 00 e3 06 eb ba a9 12 a0 3a 4c 8e 8a 3d
       6e-45 -0.001793113 0.0012212592 0.06765422
000020 f0 95 c2 3a 1a ac ea 3a ff 7b a0 bb 00 00 00 00
       0.001484571 0.0017904073 -0.004897594 0.0
000030 8d b0 b5 ba 00 00 00 00 5d 01 9c bc af bf 08 bb
       -0.001386182 0.0 -0.019043619 -0.0020866205
000040 00 00 00 00 5a 6a 57 ba a6 8c 9f bb 0c e6 cf ba
       0.0 -0.0008217447 -0.0048690615 -0.0015861406
000050 d6 76 c4 39 49 79 d9 bb 9f 70 c3 3a 23 d8 30 ba
       0.00037472573 -0.006636773 0.0014910883 -0.0006746074
000060 00 00 00 00 70 42 1f bb 0a 6e b4 b9 40 64 8c ba
       0.0 -0.0024301074 -0.0003441426 -0.0010711029
000070 ec 76 8f bc c3 42 69 ba
       -0.017512761 -0.0008898193

exp_avg_sq f4 [30]
000000 f4 43 ea 2a b5 3f 63 38 04 35 25 3c 1a f3 1a 3c
       4.1613902e-13 5.418035e-05 0.010083441 0.009457374
000010 9a 4c 05 26 21 e2 7c 3a d3 b3 5e 3b ed eb 93 3d
       4.624746e-16 0.0009646733 0.0033981695 0.07222734
000020 63 2f f0 3b 98 5c 8a 38 23 7e 0d 3b 00 00 00 00
       0.0073298677 6.5976e-05 0.0021590076 0.0
000030 ea 49 c9 37 00 00 00 00 0f 1e d7 3b 65 1f 22 3a
       2.3995486e-05 0.0 0.0065648626 0.0006184488
000040 00 00 00 00 2d 70 7d 37 b4 b3 7c 3a 4c 56 19 39
       0.0 1.5106093e-05 0.0009639815 0.00014623365
000050 70 22 2f 3c 3c 5c dd 3b 3c 06 88 3b 85 d7 bf 38
       0.010689363 0.00675538 0.004151134 9.147733e-05
000060 00 00 00 00 16 51 91 3a b3 40 31 3c 1e 06 fd 38
       0.0 0.0011086788 0.010818648 0.000120651195
000070 85 c7 28 3c 0c 44 a0 39
       0.010301475 0.00030568277
